…
c-ea39-157a150b2399","executionInfo":{"status":"ok","timestamp":1668621548844,"user_tz":-60,"elapsed":3908,"user":{"displayName":"Otto F. Wagner","userId":"08814774206121454278"}}},"cell_type":"code","source":["model=create_model()\n","model.summary()"],"execution_count":11,"outputs":[{"output_type":"stream","name":"stdout","text":["Model: \"sequential\"\n","_________________________________________________________________\n"," Layer (type)                Output Shape              Param #   \n","=================================================================\n"," conv2d (Conv2D)             (None, 32, 32, 32)        896       \n","                                                                 \n"," activation (Activation)     (None, 32, 32, 32)        0         \n","                                                                 \n"," conv2d_1 (Conv2D)           (None, 32, 32, 32)        9248      \n","                                                                 \n"," activation_1 (Activation)   (None, 32, 32, 32)        0         \n","                                                                 \n"," max_pooling2d (MaxPooling2D  (None, 16, 16, 32)       0         \n"," )                                                               \n","                                                                 \n"," dropout (Dropout)           (None, 16, 16, 32)        0         \n","                                                                 \n"," conv2d_2 (Conv2D)           (None, 16, 16, 16)        4624      \n","                                                                 \n"," activation_2 (Activation)   (None, 16, 16, 16)        0         \n","                                                                 \n"," conv2d_3 (Conv2D)           (None, 16, 16, 16)        2320      \n","                                                                 \n"," activation_3 (Activation)   (None, 16, 16, 16)        0         \n","                                                                 \n"," max_pooling2d_1 (MaxPooling  (None, 8, 8, 16)         0         \n"," 2D)                                                             \n","                                                                 \n"," dropout_1 (Dropout)         (None, 8, 8, 16)          0         \n","                                                                 \n"," conv2d_4 (Conv2D)           (None, 8, 8, 8)           1160      \n","                                                                 \n"," activation_4 (Activation)   (None, 8, 8, 8)           0         \n","                                                                 \n"," conv2d_5 (Conv2D)           (None, 8, 8, 8)           584       \n","                                                                 \n"," activation_5 (Activation)   (None, 8, 8, 8)           0         \n","                                                                 \n"," max_pooling2d_2 (MaxPooling  (None, 4, 4, 8)          0         \n"," 2D)                                                             \n","                                                                 \n"," dropout_2 (Dropout)         (None, 4, 4, 8)           0         \n","                                                                 \n"," flatten (Flatten)           (None, 128)               0         \n","                                                                 \n"," dense (Dense)               (None, 64)                8256      \n","                                                                 \n"," activation_6 (Activation)   (None, 64)                0         \n","                                                                 \n"," dropout_3 (Dropout)         (None, 64)                0         \n","                                                                 \n"," dense_1 (Dense)             (None, 10)                650       \n","                                                                 \n"," activation_7 (Activation)   (None, 10)                0         \n","                                                                 \n","=================================================================\n","Total params: 27,738\n","Trainable params: 27,738\n","Non-trainable params: 0\n","_________________________________________________________________\n"]}]},{"metadata":{"id":"W5TGSaBpWNx2"},"cell_type":"markdown","source":["## Example of Training:
…
